параметры сетей/parameters_9net4bagging.pth (torch, 637823 bytes, 4 tensors)

fc1.weight f4 [200, 784]
-0.011623801 0.0041749775 -0.028342385 0.005006054 -0.21948327 -0.06832766 0.044414695 0.54476786
0.851883 0.2251965 0.84178305 1.5609419 1.4302357 1.4620683 1.4787908 -0.48515224
0.88223225 1.1075963 0.9003798 -0.12554029 -0.6524024 0.54273945 -0.30047238 -0.1693517
-0.40129176 -0.24082316 0.0065861177 -0.034324326 0.02524193 0.008799425 0.025968838 0.11181088
0.71184313 1.0776881 0.50084966 -0.78607774 -0.11652857 0.6345222 0.708556 -0.6331178
-0.029777605 0.5642577 0.32650417 0.5300372 -0.14514297 -0.10329704 0.02704732 -0.19796818
-0.9633837 0.8181859 0.24806803 -0.74109536 -0.43898875 -0.6279288 0.0035465276 -0.025948627
0.0021633252 -0.10826937 -0.20835547 0.52618283 0.96609145 0.97922623 -0.024744252 0.0717929
-0.24045816 -0.93286777 -0.7382846 0.38431972 0.5660103 0.34647053 0.15787344 -0.69635314
-0.59429157 0.42635116 0.30651316 0.044664208 -0.11063716 0.939764 0.8628839 0.34284532
0.21018444 -0.2010732 -0.5943323 0.0065015173 -0.30723712 -0.4189722 -0.032986335 -0.5334189
-0.36579257 -0.6439468 -0.0628767 -0.12952547 -1.2461561 -1.4059505 -0.056089647 0.10359822
0.4465837 0.9458114 1.1826876 1.0795078 0.37085608 0.51597536 -0.1529563 -0.5885017
0.02379229 0.08117936 0.08873486 0.50431895 -0.84708697 -0.6814804 0.13358495 -0.38731933
-0.24779189 0.24919347 0.16735795 -0.9076901 -0.40351477 -0.43218014 0.25119978 0.2690544
-0.26597247 0.5437976 -0.4433443 -0.361422 0.02993934 0.15307397 0.07251598 -0.30280226
-0.3016673 -0.195931 -0.15963928 0.25794956 0.30751702 0.037971117 -0.6404957 -0.3809635
-0.16031283 -0.40476522 -0.14996997 -0.68832594 0.31744662 0.60196096 -0.3172242 1.081556
-0.49091208 -0.45232886 -0.50228035 -0.16467966 -0.0866264 -0.73968667 -0.44098723 0.17010425
0.06977397 0.021103326 -0.15721895 -0.15010339 -0.1784551 -0.018245902 0.038042534 -0.055619054
-0.40058002 -0.112206735 -0.22498824 -0.2947971 0.29635575 0.075877994 -0.4601519 -0.5253356
0.4783518 0.1652952 0.43790528 1.0963643 0.05917257 -0.5087877 -0.55904174 -0.84786314
-0.20336321 -0.41497517 -0.338201 0.07484453 -0.036403608 0.04898353 -0.18929213 -0.08171628
-0.0656019 0.13772878 0.20536256 -0.0531376 -0.27419078 -0.40325546 0.058832247 -0.5199183
0.001230897 0.69449294 -0.82110995 -0.49841702 -0.34797 -1.2025625 0.3044149 1.1140602
-0.34722248 -0.4762231 -0.71771765 -0.43049327 -0.28309754 -0.51212 -0.09901085 -0.19864485
-0.07578091 0.051526446 0.07302609 0.12708217 -0.11706499 -0.118148886 0.06867709 -0.26973337
-0.1600907 -0.13155654 0.33995873 0.09788222 0.1341326 0.13206364 -0.44951382 0.8754403
-0.9792733 0.18262802 0.8373277 -0.035519876 -0.25903437 -0.45747712 -0.6185499 -0.06451064
-0.09549412 -0.102997184 -0.2043705 -0.1919534 -0.11786471 0.15809779 0.46489164 0.22372176
0.17608073 -0.03546703 -0.03814368 -0.11966288 -0.11443571 0.10343706 0.32231018 -0.3842318
0.07942308 -0.5652848 0.07822386 -0.06632844 -0.92035437 0.6226711 1.3012096 -0.30998263
00000000: c171 3ebc 40ce 883b 4a2e e8bc d309 a43b
00000010: 39c0 60be 5fef 8bbd 2fec 353d e875 0b3f
00000020: 0115 5a3f e999 663e 187f 573f f2cc c73f
00000030: f711 b73f 0e25 bb3f 0449 bd3f e065 f8be
00000040: f9d9 613f b7c5 8d3f 4a7f 663f a28d 00be
00000050: d803 27bf f9f0 0a3f 84d7 99be 886a 2dbe
00000060: 1d76 cdbe 599a 76be 5cd0 d73b aa97 0cbd
00000070: 2ac8 ce3c 772b 103c 9abc d43c 1afd e43d
00000080: 5a3b 363f aff1 893f af37 003f 643c 49bf
00000090: 88a6 eebd 0c70 223f ed63 353f 0214 22bf
000000a0: 2af0 f3bc 3173 103f 8e2b a73e 85b0 073f
000000b0: 5ca0 14be 668d d3bd 5792 dd3c 2cb8 4abe
000000c0: 50a0 76bf a274 513f 8c05 7e3e 6db8 3dbf
000000d0: 22c3 e0be f1bf 20bf dc6c 683b 3792 d4bc
000000e0: 93c6 0d3b 55bc ddbd 235b 55be ebb3 063f
000000f0: c551 773f 92ae 7a3f 75b4 cabc 2808 933d
00000100: aa3a 76be 6cd0 6ebf 3800 3dbf 8ec5 c43e
00000110: 0de6 103f 9664 b13e 93a9 213e 3344 32bf
00000120: 7e23 18bf b34a da3e 4bef 9c3e d1f1 363d
00000130: bc95 e2bd 6094 703f f6e5 5c3f 6c89 af3e
00000140: 973a 573e 22e6 4dbe 2926 18bf ae0a d53b
00000150: 2f4e 9dbe 8683 d6be ae1c 07bd 248e 08bf
00000160: 2a49 bbbe b3d9 24bf 80c5 80bd 53a2 04be
00000170: 0b82 9fbf 30f6 b3bf 42be 65bd 4e2b d43d
00000180: 9ea6 e43e b220 723f 4f62 973f 502d 8a3f
00000190: d9e0 bd3e f616 043f 94a0 1cbe 0ca8 16bf
000001a0: 0ce8 c23c 5d41 a63d 9fba b53d 0c1b 013f
000001b0: b1da 58bf 8075 2ebf 7eca 083e b84e c6be
000001c0: 28bd 7dbe 932c 7f3e e25f 2b3e 615e 68bf
000001d0: 7d99 cebe b746 ddbe 429d 803e 80c1 893e
000001e0: 8b2d 88be 5236 0b3f 06fe e2be 4e0c b9be
000001f0: 5943 f53c 6cbf 1c3e 4283 943d e608 9bbe
00000200: 2374 9abe 23a2 48be 7b78 23be f711 843e
00000210: df72 9d3e 9a87 1b3d 87f7 23bf a60d c3be
00000220: 0c29 24be 633d cfbe ba91 19be 2136 30bf
00000230: 5d88 a23e 1d1a 1a3f 366b a2be 6d70 8a3f
00000240: d458 fbbe a697 e7be 7295 00bf c9a1 28be
00000250: 2f69 b1bd 1b5c 3dbf 14c9 e1be cf2f 2e3e
00000260: a8e5 8e3d e2e0 ac3c 01fe 20be b4b4 19be
00000270: efbc 36be 6e78 95bc 7dd2 1b3d ced0 63bd
00000280: d318 cdbe a5cc e5bd 5163 66be a5ef 96be
00000290: f1bb 973e ec65 9b3d 0899 ebbe 657c 06bf
000002a0: 87ea f43e 2543 293e 1f35 e03e aa55 8c3f
000002b0: f05e 723d e93f 02bf 5c1d 0fbf 8f0d 59bf
000002c0: 723e 50be a077 d4be ae28 adbe 1748 993d
000002d0: f31b 15bd f4a2 483d ccd5 41be dd5a a7bd
000002e0: 4a5a 86bd c608 0d3e 904a 523e d0a6 59bd
000002f0: bc62 8cbe 8077 cebe 15fa 703d 5e19 05bf
00000300: 0d56 a13a 4aca 313f 4334 52bf 8430 ffbe
00000310: 2029 b2be 91ed 99bf 45dc 9b3e 8699 8e3f
00000320: 25c7 b1be 84d3 f3be 58bc 37bf 9d69 dcbe
00000330: 29f2 90be 4c1a 03bf 33c6 cabd 8e69 4bbe
00000340: 0633 9bbd 650d 533d b48e 953d d421 023e
00000350: c5bf efbd 0bf8 f1bd 93a6 8c3d 7e1a 8abe
00000360: d1ee 23be c2b6 06be 120f ae3e 7976 c83d
00000370: 0e5a 093e b13b 073e ad26 e6be db1c 603f
00000380: a8b1 7abf d702 3b3e 1c5b 563f 4a7d 11bd
00000390: 27a0 84be 713a eabe 4959 1ebf 281e 84bd
000003a0: 6c92 c3bd 30f0 d2bd 8046 51be 6f8f 44be
000003b0: 0e63 f1bd 63e4 213e 4706 ee3e 5117 653e
000003c0: 824e 343e e045 11bd 8c3c 1cbd d011 f5bd
000003d0: 455d eabd cfd6 d33d d705 a53e 08ba c4be
000003e0: 91a8 a23d 81b6 10bf d533 a03d 35d7 87bd
000003f0: 589c 6bbf 6067 1f3f 098e a63f 0bb6 9ebe

fc1.bias f4 [200]
-0.035271965 0.14606152 0.11659739 0.17919284 -0.035208736 0.006293805 0.29847106 0.20255853
-0.06903594 0.13009487 -0.4947086 0.3151753 -0.19148825 -0.112695925 -0.05112104 0.2696703
-0.5552436 0.014003856 -0.42383155 -0.111591995 0.4499077 0.58848196 -0.0110323485 -0.5458129
0.11038194 0.5698921 -0.14892559 0.1589962 -0.3465703 0.456151 0.33854762 -0.1616526
-0.03458035 0.07897474 -0.08593091 -0.3388672 0.51963454 -0.44178715 -1.0727139 0.12000011
-0.9055423 0.08788569 -0.3719152 -0.004966472 0.15675738 0.30303887 -0.35347664 -0.03653967
-0.7204999 -0.5625556 -0.38156024 -0.20541365 -0.099851206 -0.061021328 -0.24631669 0.49899444
-0.3582775 -0.14568084 0.32431188 0.3093611 -0.50467414 -0.4244521 -0.09705856 -0.23275036
0.090446316 0.24683797 -0.14203657 0.073250115 -0.026676623 0.18703727 0.31878933 -0.40539074
0.26045528 -0.15107545 0.31706104 -0.9383991 -0.24527021 -0.0017446341 -0.22451943 -0.1028836
-0.4070127 -0.5333855 0.36780128 0.4347291 0.04394885 -0.3516569 0.079125755 0.2508939
-0.14042157 0.14722961 0.2393906 -1.2028815 -0.2725822 -0.4270259 -0.06078017 -0.46894917
0.37190938 0.08898683 0.2980186 0.32476196 0.051161148 0.1745988 0.35749045 -0.31539315
0.028970886 0.21908006 0.91479254 -0.17421548 -0.36582568 -0.4174096 -0.5056181 0.65383863
0.2547417 -0.11887994 -0.06793652 0.2889022 0.1222539 -0.14127095 -0.2967721 0.44047588
-0.28005046 0.41281083 -0.6432618 0.26471993 0.2801917 -0.12196621 -0.36680955 0.5048794
1.0166247 0.34049782 -0.19443078 0.011073785 -0.2034143 0.34216398 0.12867393 0.30175215
-0.022086639 -0.13470533 -0.068135284 -0.37482572 -0.30756882 -0.70238256 -0.05579533 0.42643788
0.09199502 -0.26746455 -0.067679025 0.64318645 0.2916461 -0.6938791 -0.17658034 -0.22466059
-0.5415484 -0.24302521 -0.32576853 0.60514677 0.5208927 0.65151155 0.19419126 -0.049657702
0.10832347 -0.203592 -0.16774149 -0.43417642 -0.30731675 -0.4347303 0.6292654 0.07958168
-0.020106157 0.1564066 0.064305186 0.2612932 0.44800732 0.31637105 -0.46186712 0.16073202
-0.083954066 0.35875818 -0.06772002 0.4042364 -0.029736675 -0.021146089 0.039255816 -0.23357901
-0.1197084 -0.37309042 -0.111870125 0.31655574 -0.026489314 -0.055707075 -0.47089726 -0.0660495
-0.20136945 0.082700655 0.10370855 -0.12733965 -0.30579332 -0.33075115 0.7490132 1.0048351
00000000: 5679 10bd 2791 153e 9dca ee3d 547e 373e
00000010: 0937 10bd 433c ce3b 33d1 983e 816b 4f3e
00000020: b762 8dbd 9737 053e 724a fdbe a85e a13e
00000030: 7f15 44be 1fcd e6bd 4c64 51bd 3a12 8a3e
00000040: 7224 0ebf 6e70 653c 7300 d9be 588a e4bd
00000050: 4d5a e63e c1a6 163f 06c1 34bc 65ba 0bbf
00000060: ed0f e23d 73e4 113f f37f 18be e6cf 223e
00000070: aa71 b1be a08c e93e 1d56 ad3e 4288 25be
00000080: 20a4 0dbd 82bd a13d 8cfc afbd 0080 adbe
00000090: c506 053f ed31 e2be b04e 89bf 9ec2 f53d
000000a0: 9fd1 67bf 6afd b33d ab6b bebe c9bd a2bb
000000b0: 0285 203e e927 9b3e e4fa b4be 9faa 15bd
000000c0: ae72 38bf a503 10bf dd5b c3be f557 52be
000000d0: ca7e ccbd 80f1 79bd 713a 7cbe 337c ff3e
000000e0: 2670 b7be 5c2d 15be 350c a63e 9464 9e3e
000000f0: 5332 01bf c951 d9be a3c6 c6bd 1c56 6ebe
00000100: eb3b b93d 18c3 7c3e 0972 11be 2804 963d
00000110: ef88 dabc b386 3f3e 5b38 a33e 608f cfbe
00000120: 655a 853e 86b3 1abe d355 a23e ec3a 70bf
00000130: 1d28 7bbe 35ac e4ba 6ce8 65be a3b4 d2bd
00000140: f863 d0be f48b 08bf 7350 bc3e d094 de3e
00000150: b603 343d 600c b4be af0c a23d 2a75 803e
00000160: acca 0fbe 5cc3 163e cf22 753e 05f8 99bf
00000170: e58f 8bbe 24a3 dabe a1f4 78bd 1b1a f0be
00000180: e86a be3e ba3e b63d e595 983e 3347 a63e
00000190: 5a8e 513d 07ca 323e fd08 b73e 367b a1be
000001a0: 5a54 ed3c 8656 603e d82f 6a3f 8b65 32be
000001b0: 814d bbbe b6b6 d5be 3070 01bf f861 273f
000001c0: 816d 823e 5377 f3bd 4d22 8bbd fdea 933e
000001d0: 4160 fa3d 55a9 10be 83f2 97be 0e86 e13e
000001e0: c662 8fbe f15b d33e ceac 24bf 5f89 873e
000001f0: 4975 8f3e 6cc9 f9bd 76ce bbbe c73f 013f
00000200: c220 823f bb55 ae3e dd18 47be d26e 353c
00000210: d74b 50be 1e30 af3e 19c3 033e 427f 9a3e
00000220: 0aef b4bc 32f0 09be 838a 8bbd 28e9 bfbe
00000230: a979 9dbe 58cf 33bf a589 64bd 1156 da3e
00000240: e367 bc3d 1df1 88be 4d9b 8abd dea7 243f
00000250: a352 953e 10a2 31bf 7ad1 34be 6d0d 66be
00000260: eaa2 0abf 9adb 78be 22cb a6be e6ea 1a3f
00000270: 3959 053f 76c9 263f 13da 463e e065 4bbd
00000280: b2d8 dd3d 6c7a 50be 6dc4 2bbe 5f4c debe
00000290: 9f58 9dbe f894 debe 8a17 213f b8fb a23d
000002a0: abb5 a4bc 0d29 203e 70b2 833d 39c8 853e
000002b0: 3761 e53e 63fb a13e d979 ecbe ef96 243e
000002c0: 1cf0 abbd 27af b73e cbb0 8abd 13f8 ce3e
000002d0: 549a f3bc 903a adbc b5ca 203d 562f 6fbe
000002e0: ad29 f5bd b505 bfbe 2a1c e5bd 9813 a23e
000002f0: 1e00 d9bc 1a2d 64bd 7219 f1be f644 87bd
00000300: cb33 4ebe f65e a93d 2665 d43d 5365 02be
00000310: f190 9cbe 3758 a9be 54bf 3f3f 709e 803f

fc2.weight f4 [10, 200]
0.615068 -0.028204158 -1.2246056 -0.7862001 -2.4501817 0.58973277 -1.514993 -0.9668901
-3.2196944 0.16433696 -0.58378375 1.0483927 -2.6643844 0.6609704 0.366159 -0.34845588
0.96637064 0.36273855 -1.3798549 -0.84785104 -1.3463897 0.8181794 -0.8767898 0.40071505
0.5062571 0.0047979183 1.5967124 -0.3606631 -0.6905967 0.56401867 -0.47374526 0.18764381
-3.4067194 2.1369 0.86769146 -2.152562 -1.3534067 1.3293424 -3.4373708 0.3910636
-0.8606394 0.45064813 1.2671564 -0.5117519 -1.0206664 -0.4153774 -0.5062902 -1.3588098
-1.5269842 1.0494417 -1.2788621 0.21698488 -2.7882733 0.82828003 0.20884302 0.6725988
-0.05439723 0.42712054 -1.2111322 0.41556233 -2.660061 -0.28025588 1.2647133 -0.39123538
0.15979652 -2.7390468 -0.3651557 -4.0917053 0.15447386 -0.33758554 0.20655532 -1.553237
1.9270293 1.0094693 -0.4590468 -0.8889052 0.9615261 0.5583147 -0.13588397 -0.8394275
-1.5243577 -3.6112692 0.45093206 -0.6424204 1.3440475 1.5020759 -2.016488 0.68174255
1.139062 0.69562614 -0.75280535 -2.8028884 -2.5137007 1.02327 0.31259367 1.1995647
-0.08366477 -0.4883581 0.33760956 0.56412005 1.5901428 0.087742336 0.37483057 0.84417486
-0.0043527135 -0.2986194 0.39004788 0.61315024 0.15610774 -0.43904367 -1.4730145 0.61985695
1.7076283 0.77855504 -0.67881465 0.22871861 -3.5712144 -1.430193 0.3553815 -3.268603
3.1062443 0.6046378 -0.08595189 -0.2303992 0.51772684 -0.6018196 -1.1766586 0.47265363
0.27989373 0.063363485 1.8851233 -0.09227738 -1.7067958 0.49398017 -1.3270074 -0.52208066
-0.5004948 0.06812105 2.0255234 -0.33988866 -2.2443974 -0.38145813 -0.06695193 -0.061264727
0.59045607 1.9561211 -0.20141563 0.3294147 -0.3229046 -0.61267775 0.142767 0.76933837
-1.7242844 -0.73793966 -0.7745208 0.32875112 -0.85562444 0.4833062 0.33152807 1.2852029
0.13315508 1.9479067 0.43489018 1.0686425 0.8963248 -2.5378056 0.7214906 0.3768543
0.07285781 -0.18552397 -0.4252913 0.34443805 -0.60042644 0.08507629 -3.6921766 0.3839902
0.18620282 0.6508999 1.3476068 0.061605666 -0.16818199 0.0998471 -0.54644495 -2.1644707
-0.42688343 -1.5421416 0.7234123 -0.28264236 1.1166664 -1.1628625 0.10222911 -0.22652647
-0.5116489 1.034922 0.3594324 0.4138952 -2.2207515 0.42092842 0.026714617 0.20877472
0.2990017 -0.79634863 0.89264804 0.51669836 2.0907843 0.08287032 -1.3222772 -0.8521779
-0.09921923 -0.68354684 2.3496037 -0.22770707 0.58822656 0.48884043 0.5499994 3.2799072
-0.04676801 0.72468174 0.7440069 -1.1590238 0.95480514 0.26164868 -0.30684638 -0.4416699
-0.11164122 -0.1796514 -0.7559045 -1.8976048 0.6376674 -1.5092039 -0.16787672 0.06842321
1.632237 0.91534615 0.52691233 1.1322377 1.1059672 0.9641615 1.2551361 -1.6942068
-0.21482746 0.8496604 2.1026103 0.7200391 0.25540942 -1.4733795 -0.4835226 1.3498399
0.97928447 0.63189626 0.7519526 -1.0072345 -0.63889855 0.81082124 -0.37392405 -0.46450618
00000000: 1975 1d3f 680c e7bc e0bf 9cbf 6944 49bf
00000010: c7cf 1cc0 baf8 163f 4aeb c1bf 1c86 77bf
00000020: 790f 4ec0 f347 283e da72 15bf bb31 863f
00000030: 4685 2ac0 5b35 293f 3179 bb3e cf68 b2be
00000040: 1164 773f deb8 b93e 169f b0bf c40c 59bf
00000050: 7f56 acbf 3574 513f 4c75 60bf 862a cd3e
00000060: 119a 013f db37 9d3b 1261 cc3f d5a8 b8be
00000070: f2ca 30bf 8763 103f bd8e f2be b325 403e
00000080: b107 5ac0 f8c2 0840 0721 5e3f 93c3 09c0
00000090: 6e3c adbf e427 aa3f e2fd 5bc0 7d39 c83e
000000a0: dd52 5cbf 5abb e63e 2e32 a23f 2c02 03bf
000000b0: 32a5 82bf 59ac d4be 3c9c 01bf 7bed adbf
000000c0: 3874 c3bf 1b54 863f c1b1 a3bf 4931 5e3e
000000d0: 1273 32c0 290a 543f f2da 553e 6f2f 2c3f
000000e0: a1cf 5ebd 8baf da3e 6106 9bbf 96c4 d43e
000000f0: 703e 2ac0 b37d 8fbe 20e2 a13f 0150 c8be
00000100: b3a1 233e 8b4c 2fc0 b0f5 babe 40ef 82c0
00000110: 652e 1e3e 03d8 acbe 3d83 533e 78d0 c6bf
00000120: e5a8 f63f 4a36 813f 2f08 ebbe 4b8f 63bf
00000130: 9326 763f b6ed 0e3f 2b25 0bbe b8e4 56bf
00000140: 271e c3bf 091f 67c0 91e0 e63e aa75 24bf
00000150: c009 ac3f 0644 c03f 240e 01c0 ae86 2e3f
00000160: c9cc 913f 8e14 323f dab7 40bf 8662 33c0
00000170: 79e0 20c0 83fa 823f 470c a03e 568b 993f
00000180: 6f58 abbd 130a fabe 29db ac3e 2c6a 103f
00000190: cd89 cb3f 41b2 b33d cbe9 bf3e d81b 583f
000001a0: 35a1 8ebb a4e4 98be 5bb4 c73e 6af7 1c3f
000001b0: b5da 1f3e 55ca e0be bd8b bcbf f2ae 1e3f
000001c0: 9093 da3f 624f 473f ccc6 2dbf 3635 6a3e
000001d0: c78e 64c0 9010 b7bf 90f4 b53e cb30 51c0
000001e0: b5cc 4640 8bc9 1a3f 8b07 b0bd c5ed 6bbe
000001f0: bf89 043f d910 1abf c09c 96bf a8ff f13e
00000200: 3b4e 8f3e b7c4 813d b84b f13f ecfb bcbd
00000210: 4978 dabf f8ea fc3e 61db a9bf 14a7 05bf
00000220: 6d20 00bf 0d83 8b3d 2da2 0140 e305 aebe
00000230: 35a4 0fc0 7b4e c3be 181e 89bd b9f0 7abd
00000240: 2128 173f 2d62 fa3f e63f 4ebe 0ba9 a83e
00000250: c053 a5be 73d8 1cbf 8331 123e 5cf3 443f
00000260: 5ab5 dcbf 9de9 3cbf ff46 46bf 1152 a83e
00000270: 340a 5bbf e973 f73e 0cbe a93e 8781 a43f
00000280: ce59 083e 0255 f93f eda9 de3e 47c9 883f
00000290: 8b75 653f 686b 22c0 9cb3 383f 0cf3 c03e
000002a0: 7a36 953d fff9 3dbe c8bf d9be 2f5a b03e
000002b0: 8cb5 19bf 7a3c ae3d 9f4c 6cc0 5d9a c43e
000002c0: f4ab 3e3e 60a1 263f 617e ac3f 3956 7c3d
000002d0: e637 2cbe a37c cc3d d1e3 0bbf b086 0ac0
000002e0: 7790 dabe e564 c5bf 8c31 393f 80b6 90be
000002f0: edee 8e3f aed8 94bf 7f5d d13d 8ef6 67be
00000300: 6cfb 02bf 5378 843f 8607 b83e 12ea d33e
00000310: cb20 0ec0 ee83 d73e 9dd8 da3c 0ac9 553e
00000320: c016 993e 81dd 4bbf 9584 643f 5846 043f
00000330: 69cf 0540 eab7 a93d 6140 a9bf 5528 5abf
00000340: 7433 cbbd edfc 2ebf e85f 1640 0b2c 69be
00000350: 0496 163f 4b49 fa3e c3cc 0c3f 00ea 5140
00000360: d08f 3fbd be84 393f 3c77 3e3f e45a 94bf
00000370: 1c6e 743f d1f6 853e f81a 9dbe 8f22 e2be
00000380: 27a4 e4bd 89f6 37be f582 41bf b7e4 f2bf
00000390: 2c3e 233f 982d c1bf e0e7 2bbe 7821 8c3d
000003a0: 24ed d03f 2054 6a3f bae3 063f 2aed 903f
000003b0: 5590 8d3f 4ad3 763f 4da8 a03f c5db d8bf
000003c0: bbfb 5bbe 5883 593f 2b91 0640 7c54 383f
000003d0: 06c5 823e b397 bcbf 4690 f7be 8ec7 ac3f
000003e0: 63b2 7a3f f4c3 213f f77f 403f 0fed 80bf
000003f0: db8e 23bf fb91 4f3f f972 bfbe c1d3 edbe

fc2.bias f4 [10]
0.027980598 0.17844838 -0.0138721205 0.033336356 0.08931944 -0.013285223 0.013938968 0.04122329
-0.08833561 -0.015027197
00000000: 9137 e53c 2cbb 363e e447 63bc b48b 083d
00000010: 1ced b63d 44aa 59bc 4560 643c c1d9 283d
00000020: 4de9 b4bd a234 76bc
