параметры сетей/parameters_10net4bagging.pth (torch, 796805 bytes, 4 tensors)

fc1.weight f4 [250, 784]
0	0x3cf0dd01	0.029402258
1	0xbb06dddc	-0.0020579016
2	0xbcfb9e33	-0.030715084
3	0xbcb2bcad	-0.021818483
4	0x3da87463	0.08225324
5	0xbe227c36	-0.15867695
6	0xbe473ecf	-0.19457553
7	0x3dfe69e5	0.124225415
8	0x3d2ac91e	0.041695707
9	0xbf1b19e2	-0.6058637
10	0xbf0cc493	-0.5498745
11	0xbed34306	-0.41262072
12	0xbec95430	-0.39322042
13	0xbef514ea	-0.4786752
14	0xbedfad63	-0.4368697
15	0xbe0391f4	-0.12848645
16	0xbe4ceb09	-0.20011534
17	0xbeef3ffc	-0.46728504
18	0xbe2fb348	-0.17158234
19	0xbe1c8536	-0.15285191
20	0x3e0c7631	0.13716961
21	0x3eda3049	0.42614964
22	0x3f3f1639	0.74643284
23	0x3e53d1a8	0.20685446
24	0xbd33091e	-0.043709867
25	0xbda2eeae	-0.07955681
26	0xbb0cf180	-0.002150625
27	0xbbdb7af8	-0.0066980086
28	0xbce5d315	-0.028054753
29	0xbb895c9c	-0.004191948
30	0xbd60fba6	-0.05492749
31	0x3cd7aea1	0.026328387
32	0xbeb75a8e	-0.35811275
33	0xbf0801a1	-0.53127486
34	0xbe5fd66e	-0.21859142
35	0xbf3379c7	-0.7010769
36	0xbf75cf2c	-0.96019244
37	0xbf50eb66	-0.8160919
38	0xbec59d84	-0.38596737
39	0xbf261b98	-0.64885855
40	0xbf3860b4	-0.7202256
41	0xbefb4f8e	-0.49084133
42	0xbf831cdb	-1.0243181
43	0xbf77f2c1	-0.9685479
44	0xbeb7f9b6	-0.35932702
45	0x3e9835d7	0.29728577
46	0x3f4f186e	0.8089665
47	0x3dc2002b	0.09472688
48	0xbda79a48	-0.08183724
49	0x3e2bba83	0.16770367
50	0x3e2bd271	0.16779496
51	0xbd78006b	-0.060547274
52	0xbe7c2829	-0.24624695
53	0xbec00a38	-0.37507796
54	0xbc3944e1	-0.011307926
55	0xbd5567ba	-0.052100874
56	0x3c9d3633	0.019190883
57	0xbc7acb58	-0.01530727
58	0x3f298838	0.6622348
59	0x3eaa6d39	0.33286455
60	0xbde8d403	-0.11368563
61	0x3e165745	0.14681728
62	0x3e9a7552	0.30167633
63	0x3da5bb09	0.08092315
64	0xbe127f8b	-0.14306466
65	0xbeb526e0	-0.35381222
66	0xbed6716c	-0.4188341
67	0x3e544c01	0.20732118
68	0xbf0bb68e	-0.5457543
69	0xbeabbee0	-0.33544064
70	0xbe7e790a	-0.2485086
71	0x3f2a89ae	0.6661633
72	0x3f0a2412	0.5396129
73	0x3ee7dd57	0.45286056
74	0xbebf177f	-0.37322614
75	0x3e8e1488	0.2775004
76	0x3f059cdc	0.52192473
77	0x3f15a4c0	0.58454514
78	0x3f1509b3	0.58217925
79	0x3f241425	0.6409324
80	0x3c847e13	0.016173398
81	0x3d4db3da	0.050220348
82	0x3f37ef16	0.7184919
83	0x3ebd8aa0	0.37019825
84	0x3b532b4a	0.0032221847
85	0x3c9ea5d0	0.019366175
86	0x3f2a4f4b	0.6652724
87	0x3f4d94fb	0.8030545
88	0x3f395e5c	0.72409606
89	0x3f456685	0.7710956
90	0x3f252498	0.6450896
91	0x3ee9b0b3	0.45642623
92	0x3e7e08dc	0.24808067
93	0x3f0c3c82	0.5477983
94	0xbe1f43b7	-0.15553175
95	0xbf6b0c23	-0.91815394
96	0xbf3370f8	-0.7009425
97	0xbfa5b511	-1.2945882
98	0xbf4026da	-0.7505928
99	0xbe521a45	-0.20517834
100	0x3d4c1f87	0.049834754
101	0x3e891723	0.26775464
102	0xbe96f2d1	-0.2948213
103	0x3e3f270b	0.18667237
104	0x3f5c09f0	0.85952663
105	0x3f6b6e56	0.91965234
106	0x3ee7f499	0.453038
107	0x3e472019	0.19445838
108	0xbdcdd996	-0.10051267
109	0x3ec7fe96	0.3906142
110	0x3ecab23b	0.39589104
111	0x3ec39aa5	0.38203922
112	0x3cbc76d3	0.023005879
113	0xbe3a12f0	-0.18171287
114	0x3ebdcae9	0.3706887
115	0x3fa49ea0	1.2860909
116	0x3f27034f	0.65239424
117	0x3f0109a3	0.5040533
118	0x3e8fd6d4	0.28093588
119	0xbf277bf5	-0.6542352
120	0xbf80a84b	-1.0051359
121	0xbe6962cf	-0.22791599
122	0x3d85fa97	0.06541937
123	0xbe9d9fa0	-0.30785847
124	0xbf26258c	-0.6490104
125	0xbf19ac5f	-0.6002864
126	0xbe9cc020	-0.3061533
127	0xbea1da85	-0.3161203
128	0xbef4f92e	-0.4784636
129	0x3d442394	0.047885492
130	0xbe6150ff	-0.22003554
131	0xbe25f2bf	-0.16205882
132	0x3e431b32	0.19053343
133	0x3e95b049	0.29236057
134	0x3e206c56	0.15666327
135	0x3e7c4a22	0.24637654
136	0x3e8e35c0	0.27775383
137	0x3e2fdc4a	0.17173877
138	0x3e762d6d	0.24040766
139	0x3f09f168	0.5388398
140	0x3e4a0c6e	0.19731304
141	0x3dce00d2	0.1005875
142	0x3cc4112d	0.023933971
143	0x3e91da26	0.28486747
144	0x3f240cf8	0.6408229
145	0x3eab5383	0.33462152
146	0x3eb5bf43	0.35497484
147	0x3dc423ad	0.09577117
148	0x3e112dd7	0.14177643
149	0x3dc3f426	0.09568052
150	0xbdca75ef	-0.09885775
151	0xbdd2e747	-0.10298019
152	0xbdfa9667	-0.12235718
153	0x3dc3e2b5	0.09564725
154	0xbd34ecf2	-0.04417128
155	0xbe11a706	-0.1422387
156	0x3e8431e8	0.25819325
157	0xbe23dd48	-0.16002381
158	0xbedcd383	-0.4313012
159	0xbeffa1d1	-0.49928144
160	0x3c5e5772	0.013570653
161	0x3eb5aafe	0.3548202
162	0x3f25fd41	0.6483956
163	0x3e98c803	0.29840097
164	0xbf0abceb	-0.54194516
165	0xbee0bdc3	-0.43894777
166	0xbf0de492	-0.55426896
167	0x3db787e8	0.08961469
168	0x3ddf549b	0.10904809
169	0x3e415734	0.18880922
170	0xbef9b80f	-0.48773238
171	0xbf05ce8a	-0.5226828
172	0xbd34e9c6	-0.044168256
173	0x3e53843d	0.20655914
174	0xbe521cc4	-0.20518786
175	0x3d934122	0.071901575
176	0xbdc98f4b	-0.09841784
177	0xbe0c628b	-0.13709466
178	0xbe665d5a	-0.22496548
179	0x3e6502dd	0.22364374
180	0xbd7c9fc5	-0.061675806
181	0xbe86efbe	-0.26354784
182	0xbf0b1fb6	-0.5434526
183	0xbdd7463a	-0.105114415
184	0xbe2975c0	-0.16548824
185	0x3e20d1f4	0.15705091
186	0x3d61b97e	0.05510854
187	0xbe53c9cf	-0.20682453
188	0xbe69c8bc	-0.2283048
189	0x3ed56ade	0.41683096
190	0xbe410efb	-0.18853371
191	0xbec9a422	-0.39383036
192	0xbf8e4e05	-1.111756
193	0xbf894d7d	-1.0726773
194	0xbd51fbf3	-0.051265668
195	0xbe3582ff	-0.17725752
196	0x3ed976f5	0.4247357
197	0x3e26f391	0.1630385
198	0x3e78ca73	0.24295978
199	0x3e7bd0f3	0.24591427
200	0x3f053c05	0.5204471
201	0xbe58971a	-0.2115139
202	0xbe486b06	-0.19572076
203	0x3d70f15b	0.058823925
204	0xbd6d6a97	-0.05796298
205	0xbe6e67be	-0.23281762
206	0xbd4fddfe	-0.050748818
207	0x3eace755	0.33770242
208	0x3e0f89fa	0.14017478
209	0xbdb9e95d	-0.09077714
210	0xbe76e2e1	-0.24109985
211	0xbd2d86a4	-0.04236473
212	0xbd4ee1d0	-0.05050832
213	0xbd85b65e	-0.065289244
214	0xbd0ce559	-0.03439841
215	0xbe82955c	-0.25504577
216	0xbde3f8de	-0.11131452
217	0x3ec45252	0.38344055
218	0x3ecfe7bf	0.40606496
219	0xbd0588f0	-0.032601297
220	0xbe356585	-0.17714508
221	0xbe5413d8	-0.20710695
222	0x3eccf776	0.40032548
223	0xbcfc59ad	-0.03080448
224	0xbd9c348f	-0.07627212
225	0x3ec30520	0.38089848
226	0xbf3d1323	-0.73857325
227	0x3e99ea75	0.3006169
228	0x3e69f230	0.22846293
229	0x3e1069b4	0.14102823
230	0x3e635819	0.22201575
231	0x3ee24022	0.44189554
232	0xbcb07cf3	-0.021543955
233	0xbeef4a57	-0.46736404
234	0xbe2c7b99	-0.16844024
235	0xbd15376c	-0.036429808
236	0x3de7b00d	0.11312876
237	0xbdfee1c2	-0.12445404
238	0x3bcbfb0d	0.006224996
239	0xbcaee445	-0.021349082
240	0xbec0dd77	-0.37668964
241	0xbe499023	-0.1968389
242	0xbe297d0d	-0.1655161
243	0xbdf85ef9	-0.121274896
244	0x3e9de480	0.30838394
245	0xbd6363b4	-0.055515006
246	0x3d20fa45	0.039301176
247	0x3e2c0143	0.16797356
248	0x3dcbbf20	0.099485636
249	0xbdac4229	-0.084110565
250	0xbf02cba7	-0.51092
251	0xbecaccf9	-0.39609507
252	0x3e8c719c	0.27430427
253	0x3efacb87	0.48983404
254	0xbf1e9834	-0.61950994
255	0x3e8f2a4b	0.27961954

fc1.bias f4 [250]
0	0xbe1403db	-0.14454596
1	0xbf41d8b4	-0.7572129
2	0x3f94d274	1.1626725
3	0xbece6a20	-0.40315342
4	0xbf0d13cb	-0.55108327
5	0xbd6e5a43	-0.05819155
6	0x3da0392e	0.07823406
7	0xbda5e953	-0.08101144
8	0x3f05ace3	0.5221693
9	0xbeaadaa3	-0.33369932
10	0xbe85c6d8	-0.26128268
11	0xbe463dae	-0.19359466
12	0xbe2909f1	-0.16507699
13	0x3f0463e0	0.517149
14	0x3e2073fa	0.15669242
15	0x3e4a00e6	0.19726905
16	0xbf24e0a3	-0.6440527
17	0xbdf3c08c	-0.1190196
18	0x3e972de8	0.2952721
19	0x3f2aad20	0.6667042
20	0x3d6ca614	0.057775572
21	0x3e064a8c	0.13114375
22	0x3ed6dd0a	0.41965514
23	0xbc37518c	-0.011188876
24	0xbebbc01c	-0.36670005
25	0xbef0e583	-0.47050104
26	0xbd775824	-0.06038679
27	0x3e8dc5cb	0.27689967
28	0xbf4836bc	-0.7820852
29	0xbed82485	-0.42215362
30	0xbd4e8ccc	-0.050427243
31	0xbe27acfe	-0.16374585
32	0xbc634e1c	-0.013873603
33	0xbee3967a	-0.44450742
34	0xbe52bd06	-0.20579919
35	0x3e21daf6	0.15806183
36	0x3ddade33	0.106869124
37	0x3d5aa172	0.053376622
38	0x3e34f323	0.17670874
39	0xbea84827	-0.32867548
40	0x3e940ed5	0.28917566
41	0x3efc3ce5	0.4926521
42	0xbd69671a	-0.05698309
43	0xbcc71f53	-0.024306929
44	0xbe803075	-0.2503697
45	0x3e3790f0	0.17926383
46	0xbd533c5f	-0.051571246
47	0x3e902a7b	0.2815741
48	0x3f2aece5	0.6676772
49	0x3df26fa5	0.11837701
50	0x3c6807cc	0.014162015
51	0x3ebe6ffd	0.37194815
52	0xbeef4a6a	-0.4673646
53	0x3e468ef3	0.19390468
54	0xbee21fa9	-0.4416478
55	0xbde245c3	-0.11048462
56	0x3e4f9c92	0.2027457
57	0x3d5e405c	0.054260597
58	0xbea15551	-0.31510404
59	0xbdfe7cb2	-0.124261275
60	0xbe656ccb	-0.22404782
61	0xbb360e9b	-0.0027779702
62	0xbd98c0fb	-0.07458683
63	0x3e14a802	0.14517215
64	0xbf09f7a7	-0.5389351
65	0x3e8324b2	0.25613934
66	0x3e43ab3d	0.19108291
67	0x3e1ccb21	0.15311863
68	0x3d3c6c70	0.04600185
69	0x3d29b1cd	0.04142933
70	0x3ed25c1f	0.41085908
71	0xbddf5d36	-0.109064505
72	0x3d8bb121	0.06820894
73	0xbf071233	-0.52762145
74	0xbe1c16b7	-0.1524304
75	0x3e17d369	0.1482674
76	0xbe147d53	-0.14500932
77	0x3e1849ad	0.14871855
78	0xbd8a4e4f	-0.067532174
79	0xbe4c1fcc	-0.19934005
80	0x3d84cc1b	0.064842425
81	0xbeb0516a	-0.34437114
82	0x3f549bb3	0.8305008
83	0xbcedffe3	-0.02905268
84	0xbd9ad97b	-0.07561012
85	0x3de2ebaf	0.11080109
86	0xbde68b5a	-0.11257048
87	0x3d82ce5b	0.063870154
88	0x3e25d255	0.16193517
89	0x3e0985ec	0.13429993
90	0xbf1c5deb	-0.6108081
91	0x3e9f8780	0.31158066
92	0xbe75f422	-0.2401891
93	0xbe7cc9ab	-0.24686305
94	0x3f191082	0.59790814
95	0x3e6a3f10	0.22875619
96	0x3e7d8650	0.24758267
97	0xbeb8bb34	-0.36080325
98	0x3cd2c680	0.025729418
99	0xbf22d649	-0.63608223
100	0x3d605622	0.054769643
101	0x3e16bf69	0.14721455
102	0x3ebdc2e8	0.37062764
103	0xbeebc126	-0.46045798
104	0xbe5e965e	-0.21737048
105	0x3e2595d2	0.16170433
106	0x3bdb3d42	0.006690652
107	0xbf65c634	-0.8975556
108	0x3eba563c	0.36393917
109	0xbefb32a6	-0.4906208
110	0xbd674adf	-0.056467887
111	0x3e6370bd	0.22210975
112	0xbf193542	-0.5984689
113	0xbe4c0fcd	-0.19927903
114	0xbd8112b5	-0.06302396
115	0x3df7dac8	0.12102276
116	0x3cebef84	0.028800733
117	0xbeb51987	-0.35371038
118	0x3e6d676a	0.2318398
119	0x3f0e874c	0.55675197
120	0xbe214b5f	-0.15751408
121	0xbe945684	-0.28972256
122	0x3e4a1186	0.19733247
123	0x3eb6ddd0	0.35716105
124	0xbe4a910a	-0.1978189
125	0x3eb294f2	0.3487926
126	0x3f0459c0	0.5169945
127	0x3ead63bb	0.3386515
128	0x3e072fb8	0.13201797
129	0x3da4603d	0.080261685
130	0x3e8a04c8	0.26956773
131	0xbea95bb7	-0.33077785
132	0x3db71e45	0.0894132
133	0x3e1bf785	0.1523114
134	0xbd8532f3	-0.065038584
135	0x3e3af784	0.18258482
136	0xbe268fe8	-0.16265833
137	0xbe4de350	-0.20106244
138	0xbe7740f1	-0.24145867
139	0xbd71b675	-0.059011895
140	0x3e26221e	0.16223952
141	0x3f0d3643	0.5516092
142	0xbf096e51	-0.53683954
143	0xbd8a49f4	-0.06752387
144	0xbe8d9671	-0.2765384
145	0x3e861dc1	0.26194575
146	0x3eabddbc	0.33567607
147	0x3ead3cb9	0.3383539
148	0xbee6c030	-0.45068502
149	0x3eb9df71	0.36303285
150	0xbe49c7c9	-0.19705118
151	0xbe8814c3	-0.2657834
152	0xbe249139	-0.16071023
153	0xbd9a39dd	-0.07530568
154	0x3e384ecb	0.17998807
155	0x3ee8f1d0	0.45496988
156	0x3e5ce1e4	0.21570545
157	0xbe349364	-0.1763435
158	0xbef0596f	-0.46943232
159	0x3d9a80c4	0.07544091
160	0xbeb2da47	-0.34932157
161	0x3c393b38	0.011305623
162	0xbe82446e	-0.25442833
163	0xbee04c6e	-0.4380831
164	0xbebb28c9	-0.36554554
165	0xbd8ac792	-0.06776346
166	0xbcb084e7	-0.021547748
167	0x3ec536b4	0.38518298
168	0xbeef10d4	-0.46692526
169	0xbed31fde	-0.4123525
170	0xbdfb893c	-0.12282035
171	0x3f005396	0.5012754
172	0xbebc4bff	-0.3677673
173	0xbe7ce3c0	-0.24696255
174	0x3db180d0	0.08667147
175	0x3eb7de04	0.35911572
176	0x3e746017	0.2386478
177	0xbcd048d9	-0.025425361
178	0xbe068857	-0.13137947
179	0xbee1d907	-0.4411089
180	0x3ef99d3e	0.4875278
181	0x3f1d4612	0.61435044
182	0x3e949a8d	0.29024163
183	0x3ec04f72	0.37560612
184	0x3f154b86	0.58318365
185	0xbe9266fa	-0.2859419
186	0xbe24daed	-0.16099139
187	0x3eda86ea	0.42681056
188	0x3e27daba	0.16392031
189	0xbcb48109	-0.022034185
190	0x3eb971e5	0.36219707
191	0x3d2bd9c8	0.04195574
192	0x3e96b205	0.29432693
193	0xbe826c72	-0.25473362
194	0x3e66dac0	0.22544384
195	0x3f1e75ad	0.6189831
196	0x3d97a51f	0.07404541
197	0xbe70a2bd	-0.2349958
198	0x3e96cb10	0.294518
199	0x3e9aa78a	0.30205947
200	0xbe13a58e	-0.14418623
201	0x3f120609	0.5704046
202	0x3eed0c7c	0.46298587
203	0x3eb4e0cb	0.35327753
204	0x3ebc7129	0.36805084
205	0xbea9f21f	-0.33192536
206	0xbce89c43	-0.028394824
207	0xbe8b8fb5	-0.27258077
208	0x3e94bb28	0.2904904
209	0x3c9b1cab	0.018934568
210	0xbda2ab2e	-0.07942806
211	0xbeb27e23	-0.3486186
212	0xbd9f7044	-0.07785085
213	0x3e8b3a81	0.27193072
214	0xbdb67215	-0.08908478
215	0xbe4bb9a5	-0.19895037
216	0x3ed50a1d	0.41609278
217	0x3d2f472d	0.042792488
218	0x3db7f43b	0.0898213
219	0xbe9b0813	-0.30279598
220	0xbe978abb	-0.2959803
221	0x3f08dd3e	0.5346259
222	0x3c8ae0e4	0.01695294
223	0xbde44f4a	-0.11147936
224	0xbcff589a	-0.031170178
225	0x3f6a9b34	0.9164307
226	0x3f33347f	0.7000198
227	0xbeb384bb	-0.35062203
228	0xbeb9b239	-0.36268786
229	0x3e638295	0.22217782
230	0x3e78c654	0.24294406
231	0x3ea499b5	0.3214852
232	0x3da1246b	0.07868274
233	0xbceb8ce4	-0.028753705
234	0x3eb9d174	0.36292613
235	0x3f279feb	0.6547839
236	0x3f0486b3	0.51768035
237	0xbe8c9e83	-0.27464685
238	0x3da519ff	0.08061599
239	0x3ee6413e	0.4497165
240	0x3d1ce49e	0.038303964
241	0x3ded4d17	0.11586969
242	0xbe0b0d6c	-0.13579339
243	0x3eb76b89	0.3582423
244	0x3f039e94	0.51413846
245	0xbec1c23b	-0.378435
246	0xbe4c9ec4	-0.1998244
247	0xbd34a8ac	-0.04410617
248	0xbe8c52f0	-0.27407026
249	0x3f052145	0.5200389

fc2.weight f4 [10, 250]
0	0xbffe4c3a	-1.9867013
1	0xbfdc75ed	-1.7223488
2	0x3f9803d7	1.1876172
3	0xc0083800	-2.128418
4	0x3f0826bb	0.531841
5	0xbf38410d	-0.7197426
6	0x3f21a5b0	0.63143444
7	0x3d0359d7	0.0320681
8	0x3ebef62f	0.37297198
9	0xbe495b5e	-0.1966376
10	0x4003b16d	2.0577042
11	0xbdd2e38e	-0.10297309
12	0xbf8ae154	-1.0850015
13	0x3e58bc17	0.211655
14	0x3e96a383	0.29421625
15	0x3efebbb5	0.49752584
16	0xbfe2929a	-1.7700989
17	0x40127789	2.2885458
18	0x3f0e55f0	0.5559988
19	0x3f510502	0.81648266
20	0xc035b9c6	-2.8394637
21	0xc01256cd	-2.286548
22	0xc0151797	-2.3295648
23	0xbf854ba3	-1.0413707
24	0x3ebc858d	0.3682064
25	0xbfb97851	-1.4489843
26	0xbe96dbb5	-0.29464498
27	0x3f438b18	0.76384115
28	0xc059593a	-3.396071
29	0xbfff9a9a	-1.9969056
30	0x3f3427fd	0.7037352
31	0xc02bc7f4	-2.6840792
32	0xc03b0959	-2.9224455
33	0xbf465034	-0.7746613
34	0xbf3ceadb	-0.7379586
35	0x3fa73b67	1.3065003
36	0xbf103dab	-0.563441
37	0xc03242ed	-2.7853348
38	0xc04591c5	-3.087022
39	0x3f1ff9aa	0.6249033
40	0xbff325a9	-1.8995868
41	0xbd2337cf	-0.039848145
42	0x3eb2b6ae	0.34905
43	0x3f0ee794	0.5582211
44	0xbe09caef	-0.1345632
45	0x3fb8d563	1.444012
46	0x3f738fd2	0.9514133
47	0x3df59470	0.11991203
48	0x3e872a7e	0.26399606
49	0x3e8d4807	0.27594015
50	0x3f0af812	0.54284775
51	0x3f283156	0.6570028
52	0xbccdbd4f	-0.025114683
53	0x3cbdb53a	0.023157705
54	0x3f58bc2f	0.84662145
55	0xbf1ed0de	-0.62037456
56	0x3f2aa41f	0.6665668
57	0x3f2e0622	0.6797811
58	0xc007c039	-2.1211073
59	0x3f7ae888	0.98011065
60	0xbfbd0421	-1.4766885
61	0xbf8f9343	-1.1216816
62	0xbf75ef3a	-0.96068156
63	0xbed08825	-0.4072887
64	0xc02a9761	-2.6654894
65	0x3eded9d5	0.43525568
66	0x40041a10	2.0640907
67	0xbf3a4a70	-0.7276983
68	0xbf3dd5c1	-0.7415429
69	0xc02a4da6	-2.6609893
70	0x3ea31cf5	0.3185803
71	0xbe9e762c	-0.30949533
72	0x3d50aeb9	0.05094788
73	0x3f44a4f8	0.7681422
74	0x3fb21ff7	1.3916005
75	0x3efb18d7	0.4904239
76	0x3f4f4360	0.8096218
77	0x3ec6bd63	0.38816366
78	0xbf019bdb	-0.5062844
79	0xbfbb78d8	-1.4646254
80	0x3f81af4c	1.0131621
81	0x3fa8c14e	1.3183992
82	0xbf722afb	-0.94596833
83	0x3e8c253c	0.27372158
84	0x3f8ccda8	1.1000261
85	0x3ec697c3	0.3878766
86	0x40122cff	2.2839963
87	0xbfc636d7	-1.5485486
88	0x3f5282f7	0.82231086
89	0xbe52a88d	-0.2057211
90	0xc026fc8f	-2.609165
91	0x3f519fda	0.8188454
92	0xbff680bf	-1.925804
93	0x3ffa9d7a	1.9579308
94	0xbef6f7a6	-0.48235816
95	0x3eeeadbb	0.4661692
96	0xbef420f4	-0.4768139
97	0xbfe53f8d	-1.7910019
98	0x3ec6e3b5	0.38845602
99	0xbf0c4db3	-0.5480606
100	0x3eec65ed	0.46171513
101	0xbfaaf4e7	-1.3355988
102	0xbf430782	-0.7618333
103	0xbc9cbd2f	-0.019133179
104	0xbfe13abb	-1.7596048
105	0x3d6e94fb	0.058247548
106	0xbfb6d724	-1.4284406
107	0xbfb382c8	-1.4024286
108	0xbebec816	-0.37262028
109	0xbfc136bd	-1.509483
110	0x3e9c5fb9	0.3054178
111	0x3f254cce	0.6457032
112	0xc0310f77	-2.766569
113	0x3f7f19b5	0.996486
114	0xc007e640	-2.1234283
115	0x3ece5095	0.40295854
116	0x3f9756e7	1.1823395
117	0x3fbe0482	1.4845126
118	0x3e06e0b9	0.13171662
119	0x3f59b807	0.8504643
120	0x3f646e33	0.8923065
121	0xc00d7549	-2.2102835
122	0xbfe88ec2	-1.8168566
123	0xbfcdec71	-1.6087781
124	0x3eefbc83	0.4682351
125	0x3f216fe7	0.63061374
126	0x3f21c0fd	0.631851
127	0x3f734735	0.9503053
128	0x3ec78a36	0.38972634
129	0x3e15f6fd	0.14645
130	0x3f2bce96	0.671121
131	0xbf682c3f	-0.90692514
132	0x3d7b7f0b	0.061400454
133	0x3e387bb1	0.18015935
134	0xbf0ac68a	-0.54209197
135	0xbf4a11e7	-0.78933567
136	0x3ed13a8c	0.4086498
137	0xbfa87259	-1.3159896
138	0x3f00286c	0.5006168
139	0xbfa2b4cd	-1.2711426
140	0x3f578598	0.8418822
141	0xbfaa6336	-1.3311527
142	0xbf7d84f1	-0.9903098
143	0x3f0d5d6e	0.5522069
144	0xc06af94d	-3.671466
145	0xbf9fc5ee	-1.2482278
146	0xbee1363b	-0.43986687
147	0x3f274577	0.6534037
148	0x3f8343f6	1.0255115
149	0x3ece9cee	0.40354103
150	0x3f711ff6	0.94189394
151	0xbfccc3e3	-1.599728
152	0xbee0b2ff	-0.43886563
153	0xbc815c9d	-0.015791232
154	0xc048b213	-3.1358688
155	0x3e526d48	0.205495
156	0xbe91e6a9	-0.28496292
157	0x3f3646e6	0.7120193
158	0xbfc3b72c	-1.5290275
159	0xbfa95291	-1.3228322
160	0x3e2edeb7	0.17077146
161	0xbfc65191	-1.5493642
162	0x3ed0bb5d	0.40767947
163	0xbf404ba8	-0.7511544
164	0xbcb63a06	-0.022244465
165	0xbf264f7f	-0.6496505
166	0xbf9eb818	-1.2399931
167	0x3ef0fcb5	0.470678
168	0x3f2c7528	0.67366266
169	0x3ea62b44	0.32454884
170	0x3fc2084c	1.5158782
171	0x3ee67388	0.45010018
172	0x3f921826	1.141362
173	0x3ecb0141	0.39649394
174	0xbfcbd7da	-1.5925248
175	0x3e8cbba3	0.27486905
176	0x3e82376c	0.2543291
177	0xbf999977	-1.1999959
178	0xbf881051	-1.0629979
179	0xbf65a986	-0.897118
180	0x3f143c30	0.5790434
181	0x3db5a411	0.08869184
182	0xbfaafba1	-1.3358041
183	0xbe9df354	-0.30849707
184	0xbf3f9d1c	-0.74849105
185	0xbe1c3570	-0.1525476
186	0xbdb894e8	-0.090127766
187	0xc000ee41	-2.0145419
188	0x3fd1b07a	1.6381981
189	0xbf4d3e7b	-0.8017346
190	0x3f584176	0.84474885
191	0xbf1af582	-0.60530865
192	0xc005a090	-2.087925
193	0x3e6ad6ee	0.22933552
194	0xbf7b9787	-0.9827809
195	0x3f8f690d	1.1203934
196	0xbf6adef1	-0.9174643
197	0xbea113c5	-0.31460395
198	0x3f32fd5d	0.6991785
199	0x3f1fe329	0.62455994
200	0x3fa58b0d	1.293306
201	0xbf674e1c	-0.9035356
202	0x3ea7350f	0.32657668
203	0x3f974891	1.181902
204	0x3f325dc3	0.6967432
205	0xbf1d3e49	-0.61423165
206	0x3fac40d1	1.345728
207	0xbf23c818	-0.63977194
208	0xbf3b4b96	-0.7316221
209	0xbe125dc3	-0.1429358
210	0xbfd6c953	-1.6780189
211	0x3f5cc008	0.86230516
212	0x3fa95ca9	1.3231403
213	0x3e85b10d	0.26111642
214	0xc02c7e0b	-2.695193
215	0xbe2c03d0	-0.1679833
216	0xbf32172a	-0.69566596
217	0xbf913bb5	-1.1346346
218	0x3fbc8bc0	1.4730148
219	0xbfb26724	-1.3937726
220	0x3fbc1f08	1.469697
221	0x3ea8bb1b	0.3295525
222	0x3f5a264c	0.85214686
223	0x3f456b8f	0.77117246
224	0xbe2dc276	-0.16968712
225	0xc00a1119	-2.1572936
226	0x3efaa696	0.4895522
227	0xc02e7767	-2.7260377
228	0x3e097c45	0.13426311
229	0x3fe19490	1.7623463
230	0x3b9a5a66	0.0047104834
231	0x3f92164c	1.1413054
232	0xbf3cf3ee	-0.7380971
233	0x3ea8cdce	0.32969517
234	0x3e0c4531	0.1369827
235	0x3f36fd06	0.71479833
236	0xbf937114	-1.1518884
237	0xbf70de47	-0.9408917
238	0x3f599c12	0.8500377
239	0x3e6ab73a	0.22921458
240	0xbd662ff7	-0.056198087
241	0x3f95f192	1.1714346
242	0x3ebd2003	0.36938486
243	0x3f71f208	0.94509935
244	0xbf8beda0	-1.0931892
245	0xbf8fb54c	-1.1227202
246	0xbfdc32ba	-1.720298
247	0xbfe6b7ad	-1.8024803
248	0x3fc71330	1.555273
249	0x3e91ba77	0.28462574
250	0x3f5c07e6	0.8594955
251	0x3fcb4940	1.5881729
252	0xbfc918e7	-1.5710725
253	0xbf43914f	-0.763936
254	0x3f5d954b	0.8655593
255	0xc0094648	-2.1449146

fc2.bias f4 [10]
0	0xbdf0964b	-0.11747416
1	0xbd6649cd	-0.056222726
2	0xbdc97151	-0.098360665
3	0xbdcd02e8	-0.1001032
4	0x3d101036	0.03517171
5	0xbda87956	-0.08226268
6	0xbdd3c91f	-0.10341095
7	0xbe4ee61c	-0.20204967
8	0xbdf53488	-0.1197291
9	0xbe11af7a	-0.14227095
